…
</span><span class="n">model</span><span class="p">.</span><span class="nf">summary</span><span class="p">(</span><span class="n">show_trainable</span><span class="o">=</span><span class="bp">False</span><span class="p">)</span>
</code></pre></div></div>

<div class="language-plaintext highlighter-rouge"><div class="highlight"><pre class="highlight"><code>Model: "model"
_________________________________________________________________
Layer (type)                 Output Shape               Param #
=================================================================
input_1 (InputLayer)        [(None, 10)]               0
normalization (Normalizati   (None, 10)                21
on)
dense (Dense)                (None, 8)                 88
batch_normalization (Batch   (None, 8)                 32
Normalization)
re_lu (ReLU)                 (None, 8)                 0
dropout (Dropout)            (None, 8)                 0
dense_1 (Dense)              (None, 4)                 36
batch_normalization_1 (Bat   (None, 4)                 16
chNormalization)
re_lu_1 (ReLU)               (None, 4)                 0
dropout_1 (Dropout)          (None, 4)                 0
dense_2 (Dense)              (None, 1)                 5
=================================================================
Total params: 198 (796.00 Byte)
Trainable params: 153 (612.00 Byte)
Non-trainable params: 45 (184.00 Byte)
_________________________________________________________________
</code></pre></div></div>

<p>Notice how each layer is explicitly connected using function calls (e.g., <code class="language-plaintext highlighter-rouge">layers.Dense(8)(x)</code>). This syntax makes the data flow clear and allows for complex branching patterns that aren’t possible with the Sequential API.</p>
…
</span><span class="n">model</span> <span class="o">=</span> <span class="nf">build_and_compile_model</span><span class="p">()</span>
<span class="n">model</span><span class="p">.</span><span class="nf">summary</span><span class="p">()</span>
</code></pre></div></div>

<div class="language-plaintext highlighter-rouge"><div class="highlight"><pre class="highlight"><code>Model: "model_1"
_________________________________________________________________
Layer (type)                Output Shape              Param #
=================================================================
input_2 (InputLayer)        [(None, 10)]              0
normalization (Normalizati  (None, 10)                21
on)
batch_normalization_2 (Bat  (None, 10)                40
chNormalization)
dense_3 (Dense)             (None, 8)                 88
batch_normalization_3 (Bat  (None, 8)                 32
chNormalization)
dense_4 (Dense)             (None, 4)                 36
dense_5 (Dense)             (None, 1)                 5
=================================================================
Total params: 222 (892.00 Byte)
Trainable params: 165 (660.00 Byte)
Non-trainable params: 57 (232.00 Byte)
_________________________________________________________________
</code></pre></div></div>

<p>Next step is the creation of the parameter grid. First, let’s establish the different parameters we could
explore.</p>

<div class="language-python highlighter-rouge"><div class="highlight"><pre class="highlight"><code><span class="c1"># Define exploration grid
…
and the number of trainable and non-trainable parameters.</p>

<div class="language-python highlighter-rouge"><div class="highlight"><pre class="highlight"><code><span class="n">model</span><span class="p">.</span><span class="nf">summary</span><span class="p">()</span>
</code></pre></div></div>

<div class="language-plaintext highlighter-rouge"><div class="highlight"><pre class="highlight"><code>Model: "sequential"
_________________________________________________________________
Layer (type)                    Output Shape              Param #
=================================================================
conv2d (Conv2D)                 (None, 26, 26, 32)        320
re_lu (ReLU)                    (None, 26, 26, 32)        0
max_pooling2d (MaxPooling2D)    (None, 13, 13, 32)        0
conv2d_1 (Conv2D)               (None, 11, 11, 64)        18496
re_lu_1 (ReLU)                  (None, 11, 11, 64)        0
max_pooling2d_1 (MaxPooling2D)  (None, 5, 5, 64)          0
flatten (Flatten)               (None, 1600)              0
dropout (Dropout)               (None, 1600)              0
dense (Dense)                   (None, 32)                51232
re_lu_2 (ReLU)                  (None, 32)                0
dropout_1 (Dropout)             (None, 32)                0
dense_1 (Dense)                 (None, 10)                330
softmax (Softmax)               (None, 10)                0
=================================================================
Total params: 70,378 (274.91 KB)
Trainable params: 70,378 (274.91 KB)
Non-trainable params: 0 (0.00 Byte)
_________________________________________________________________
</code></pre></div></div>

<p>This summary tells us several important things:</p>
<ol>
  <li>Our model has 70,378 trainable parameters - relatively small by modern standards</li>
…
    <span class="n">metrics</span><span class="o">=</span><span class="p">[</span><span class="sh">"</span><span class="s">accuracy</span><span class="sh">"</span><span class="p">])</span>

<span class="n">model</span><span class="p">.</span><span class="nf">summary</span><span class="p">()</span>
</code></pre></div></div>

<pre><code class="language-code">Model: "model_1"
_________________________________________________________________
 Layer (type)                Output Shape              Param #   
=================================================================
 input_1  (InputLayer)          [(None, 32, 32, 3)]    0         
 conv2d_2  (Conv2D)              (None, 32, 32, 64)    4864      
 activation_3 (Activation)       (None, 32, 32, 64)    0         
 max_pooling2d_4 (MaxPooling2D)  (None, 16, 16, 64)    0         
 conv2d_5 (Conv2D)               (None, 16, 16, 64)    36928     
 max_pooling2d_6 (MaxPooling2D)  (None, 8, 8, 64)      0         
 flatten_7 (Flatten)             (None, 4096)          0         
 dropout_8 (Dropout)             (None, 4096)          0         
 dense_9 (Dense)                 (None, 256)           1048832   
 batch_normalization_10 (Batch   (None, 256)           1024      
 Normalization)                                                  
 dense_11 (Dense)                (None, 10)            2570      
=================================================================
Total params: 1,094,218
Trainable params: 1,093,706
Non-trainable params: 512
_________________________________________________________________
</code></pre>

<p>This is certainly not the most efficient, nor the best performing network, but it allows us to observe the inner workings of a neural network. But before we go ahead and train the network, let’s take a look at the ‘raw’ and untrained version of it.</p>
…
