…
    <span class="n">metrics</span><span class="o">=</span><span class="p">[</span><span class="sh">"</span><span class="s">accuracy</span><span class="sh">"</span><span class="p">])</span>

<span class="n">model</span><span class="p">.</span><span class="nf">summary</span><span class="p">()</span>
</code></pre></div></div>

<pre><code class="language-code">Model: "model_1"
_________________________________________________________________
 Layer (type)                Output Shape              Param #   
=================================================================
 input_1  (InputLayer)          [(None, 32, 32, 3)]    0         
 conv2d_2  (Conv2D)              (None, 32, 32, 64)    4864      
 activation_3 (Activation)       (None, 32, 32, 64)    0         
 max_pooling2d_4 (MaxPooling2D)  (None, 16, 16, 64)    0         
 conv2d_5 (Conv2D)               (None, 16, 16, 64)    36928     
 max_pooling2d_6 (MaxPooling2D)  (None, 8, 8, 64)      0         
 flatten_7 (Flatten)             (None, 4096)          0         
 dropout_8 (Dropout)             (None, 4096)          0         
 dense_9 (Dense)                 (None, 256)           1048832   
 batch_normalization_10 (Batch   (None, 256)           1024      
 Normalization)                                                  
 dense_11 (Dense)                (None, 10)            2570      
=================================================================
Total params: 1,094,218
Trainable params: 1,093,706
Non-trainable params: 512
_________________________________________________________________
</code></pre>

<p>This is certainly not the most efficient, nor the best performing network, but it allows us to observe the inner workings of a neural network. But before we go ahead and train the network, let’s take a look at the ‘raw’ and untrained version of it.</p>
…
